…
g. I know this is an eye, and can appear anywhere in the image).\nIn my case location is important and I want my CNN to be aware of that. ie. the presence of a pattern at a specific location in the image means something very specific compared to if that feature or pattern appears elsewhere.\nAt the moment my network looks like this (taken from an example somewhere):\n_________________________________________________________________\nLayer (type)                 Output Shape              Param #   \n=================================================================\nconv2d_1 (Conv2D)            (None, 196, 178, 32)      896       \n_________________________________________________________________\nactivation_1 (Activation)    (None, 196, 178, 32)      0         \n_________________________________________________________________\nmax_pooling2d_1 (MaxPooling2 (None, 98, 89, 32)        0         \n_________________________________________________________________\nconv2d_2 (Conv2D)            (None, 96, 87, 32)        9248      \n_________________________________________________________________\nactivation_2 (Activation)    (None, 96, 87, 32)        0         \n_________________________________________________________________\nmax_pooling2d_2 (MaxPooling2 (None, 48, 43, 32)        0         \n_________________________________________________________________\nconv2d_3 (Conv2D)            (None, 46, 41, 64)        18496     \n_________________________________________________________________\nactivation_3 (Activation)    (None, 46, 41, 64)        0         \n_________________________________________________________________\nmax_pooling2d_3 (MaxPooling2 (None, 23, 20, 64)        0         \n_________________________________________________________________\nflatten_1 (Flatten)          (None, 29440)             0         \n_________________________________________________________________\ndense_1 (Dense)              (None, 32)                942112    \n_________________________________________________________________\nactivation_4 (Activation)    (None, 32)                0         \n_________________________________________________________________\ndropout_1 (Dropout)          (None, 32)                0         \n_________________________________________________________________\ndense_2 (Dense)              (None, 3)                 99        \n_________________________________________________________________\nactivation_5 (Activation)    (None, 3)                 0         \n=================================================================\nTotal params: 970,851\nTrainable params: 970,851\nNon-trainable params: 0\n_________________________________________________________________\n\nThe 'images' I'm training on are 180 x 180 x 3 pixels and each channel contains a different set of raw data.\nWhat strategies are there to improve my CNN to deal with this? I hav
…
ence=20)])\n\nmodel summary\n/usr/local/lib/python3.6/dist-packages/ipykernel_launcher.py:15: UserWarning: Update your `Model` call to the Keras 2 API: `Model(inputs=[<tf.Tenso..., outputs=[<tf.Tenso...)`\n  from ipykernel import kernelapp as app\nModel: \"model_3\"\n__________________________________________________________________________________________________\nLayer (type)                    Output Shape         Param #     Connected to                     \n==================================================================================================\ninput_5 (InputLayer)            (None, 10081, 1)     0                                            \n__________________________________________________________________________________________________\nconv1d_5 (Conv1D)               (None, 10068, 64)    960         input_5[0][0]                    \n__________________________________________________________________________________________________\nmax_pooling1d_3 (MaxPooling1D)  (None, 2013, 64)     0           conv1d_5[0][0]                   \n__________________________________________________________________________________________________\nconv1d_6 (Conv1D)               (None, 2000, 64)     57408       max_pooling1d_3[0][0]            \n__________________________________________________________________________________________________\nglobal_max_pooling1d_3 (GlobalM (None, 64)           0           conv1d_6[0][0]                   \n__________________________________________________________________________________________________\ninput_6 (InputLayer)            (None, 104)          0                                            \n__________________________________________________________________________________________________\nconcatenate_3 (Concatenate)     (None, 168)          0           global_max_pooling1d_3[0][0]     \n                                                                 input_6[0][0]                    \n__________________________________________________________________________________________________\ndense_5 (Dense)                 (None, 128)          21632       concatenate_3[0][0]              \n__________________________________________________________________________________________________\ndense_6 (Dense)                 (None, 2)            258         dense_5[0][0]                    \n==================================================================================================\nTotal params: 80,258\nTrainable params: 80,258\nNon-trainable params: 0\n\nand the training process\n__________________________________________________________________________________________________\nTrain on 588 samples, validate on 148 samples\nEpoch 1/
…
codedSize, input_shape=decodedSize)(decoded)\n\n\nautoencoder = Model(input_img, decoded)\nautoencoder.compile(optimizer='adadelta', loss='binary_crossentropy')\n\nMy input shape is: 1169x827\nThis is Keras output:\nModel: \"model_6\"\n_________________________________________________________________\nLayer (type)                 Output Shape              Param #   \n=================================================================\ninput_7 (InputLayer)         [(None, 1169, 827, 1)]    0         \n_________________________________________________________________\nconv2d_30 (Conv2D)           (None, 1169, 827, 32)     320       \n_________________________________________________________________\nmax_pooling2d_12 (MaxPooling (None, 585, 414, 32)      0         \n_________________________________________________________________\nconv2d_31 (Conv2D)           (None, 585, 414, 64)      18496     \n_________________________________________________________________\nmax_pooling2d_13 (MaxPooling (None, 293, 207, 64)      0         \n_________________________________________________________________\nconv2d_32 (Conv2D)           (None, 291, 205, 32)      18464     \n_________________________________________________________________\nup_sampling2d_12 (UpSampling (None, 582, 410, 32)      0         \n_________________________________________________________________\nconv2d_33 (Conv2D)           (None, 582, 410, 32)      9248      \n_________________________________________________________________\nup_sampling2d_13 (UpSampling (None, 1164, 820, 32)     0         \n_________________________________________________________________\nconv2d_34 (Conv2D)           (None, 1162, 818, 1)      289       \n===============================================================\n\nHow can I have the same input and output shape?\n", "type": 1, "id": "22106", "date": "2020-06-23T13:06:31.737", "score": 2, "comment_count": 0, "tags": ["convolutional-neural-networks", "tensorflow", "keras", "autoencoders"], "title": "How can I have the same input and output shape in an auto-encoder?", "answer_count": 2,
…
curacy: 0.5005\nEpoch 10/10\n914/914 [==============================] - 272s 297ms/step - loss: 0.1142 - accuracy: 0.9548 - val_loss: 1.6054 - val_accuracy: 0.5009\n\nHere's model.evaluate():\nmodel.evaluate(X_train,Y_train)\n\n914/914 [==============================] - 35s 37ms/step - loss: 1.7588 - accuracy: 0.5009\n\nHere's model.summary():\nModel: \"sequential\"\n_________________________________________________________________\nLayer (type)                 Output Shape              Param #   \n=================================================================\nconv1d (Conv1D)              (None, 4096, 16)          992       \n_________________________________________________________________\nbatch_normalization (BatchNo (None, 4096, 16)          64        \n_________________________________________________________________\nactivation (Activation)      (None, 4096, 16)          0         \n_________________________________________________________________\nmax_pooling1d (MaxPooling1D) (None, 2048, 16)          0         \n_________________________________________________________________\nconv1d_1 (Conv1D)            (None, 2048, 32)          1568      \n_________________________________________________________________\nbatch_normalization_1 (Batch (None, 2048, 32)          128       \n_________________________________________________________________\nactivation_1 (Activation)    (None, 2048, 32)          0         \n_________________________________________________________________\nmax_pooling1d_1 (MaxPooling1 (None, 1024, 32)          0         \n_________________________________________________________________\nconv1d_2 (Conv1D)            (None, 1024, 64)          6208      \n_________________________________________________________________\nbatch_normalization_2 (Batch (None, 1024, 64)          256       \n_________________________________________________________________\nactivation_2 (Activation)    (None, 1024, 64)          0         \n_________________________________________________________________\nmax_pooling1d_2 (MaxPooling1 (None, 512, 64)           0         \n_________________________________________________________________\nconv1d_3 (Conv1D)            (None, 512, 64)           12352     \n_________________________________________________________________\nbatch_normalization_3 (Batch (None, 512, 64)           256       \n_________________________________________________________________\nactivation_3 (Activation)    (None, 512, 64)           0         \n_________________________________________________________________\nmax_pooling1d_3 (MaxPooling1 (None, 256, 64)           0         \n_________________________________________________________________\nconv1d_4 (Conv1D)            (None, 256, 64)           12352     \n_________________________________________________________________\nbatch_normalization_4 (Batch (None, 256, 64)           256       \n_________________________________________________________________\nactivation_4 (Activation)    (None, 256, 64)           0         \n_________________________________________________________________\nflatten (Flatten)            (None, 16384)             0         \n_________________________________________________________________\ndropout (Dropout)            (None, 16384)             0         \n_________________________________________________________________\ndense (Dense)                (None, 200)               3277000   \n_________________________________________________________________\nactivation_5 (Activation)    (None, 200)               0         \n_________________________________________________________________\ndense_1 (Dense)              (None, 2)                 402       \n_________________________________________________________________\nactivation_6 (Activation)    (None, 2)                 0         \n=================================================================\nTotal params: 3,311,834\nTrainable params: 3,311,354\nNon-trainable params: 480\n_________________________________________________________________\n\n", "type": 1, "id": "25819", "date": "2021-01-17T17:31:29.747", "score": 1, "comment_count": 0, "tags": ["deep-learning", "convolutional-neural-networks", "python", "keras"
…
